Code/PyTorch/AlgswithPyTorch/Char03 Actor-Critic/AC_CartPole_Model/ModelTraing20100Times.pkl (torch_old, 40335 bytes, 5 tensors)

weight f4 [32, 4]
0	0x3db64072	0.08899011
1	0xbe0dce52	-0.13848236
2	0x3f133400	0.5750122
3	0x3f0c6f4c	0.54857326
4	0xbe9e9e91	-0.30980352
5	0x3e7bb45e	0.24580523
6	0xbeeeff24	-0.46679032
7	0x3e147fa7	0.1450182
8	0x3d8e5a78	0.06950849
9	0xbd7ac400	-0.061222076
10	0x3e0e0240	0.13868046
11	0x3cca1020	0.024665892
12	0x3eb55206	0.3541414
13	0xbe64b5a9	-0.22334923
14	0xbeb41db8	-0.35178924
15	0xbdc6bc28	-0.09703857
16	0xbe0ec898	-0.13943708
17	0x3bf19f46	0.007373723
18	0x3f753533	0.957843
19	0x3ecb537e	0.39712137
20	0xbed0ca26	-0.40779227
21	0xbf00d982	-0.5033189
22	0xbeb27b5e	-0.34859747
23	0xbee5a16e	-0.44849724
24	0xbd67d740	-0.056601763
25	0xbdf0d5e7	-0.11759549
26	0x3e8d09f8	0.27546668
27	0x3ee8798e	0.4540524
28	0xbf19dcd1	-0.60102564
29	0x3f1ccd67	0.6125092
30	0x3f5383cd	0.8262299
31	0x3f264f8d	0.64965135
32	0x3ebc609e	0.36792463
33	0xbf0212e7	-0.5081009
34	0xbe4bfc3a	-0.19920436
35	0x3dc62727	0.096754365
36	0x3f20cd97	0.62813705
37	0xbe8e6d3c	-0.27817714
38	0xbe3a15d6	-0.18172392
39	0xbe47a1f4	-0.19495374
40	0x3f2bc8ba	0.6710316
41	0xbe281c0b	-0.16416948
42	0x3f1200a3	0.5703222
43	0x3e522c62	0.20524743
44	0xbe86dd82	-0.26340872
45	0x3e83967a	0.25700742
46	0xbe87e3d4	-0.26541007
47	0x3e1694e4	0.14705235
48	0xbe8903e6	-0.26760787
49	0xbe3aaaec	-0.18229264
50	0xbf390d7a	-0.7228619
51	0xbec8d226	-0.3922283
52	0x3d91cb68	0.07118875
53	0x3db8319a	0.08993836
54	0x3f994d4a	1.1976712
55	0x3f163fc2	0.58691037
56	0xbee42f6c	-0.4456743
57	0xbec3696b	-0.38166365
58	0x3f43ea8f	0.76529783
59	0x3e73952a	0.2378737
60	0xbea398ee	-0.31952614
61	0x3f313436	0.6922029
62	0x3f6b5ca7	0.9193825
63	0x3f1c4580	0.6104355
64	0x3dced6b7	0.10099547
65	0xbdcf02b0	-0.101079345
66	0xbf285928	-0.6576104
67	0xbe3df80c	-0.18551654
68	0xbf59aea6	-0.8503212
69	0xbf05aaab	-0.52213544
70	0x3f08eea1	0.5348912
71	0xbe11d252	-0.14240387
72	0x3dd94cc8	0.10610348
73	0x3e7ade0d	0.24498768
74	0x3f63840f	0.8887338
75	0x3eaa5f97	0.33276054
76	0x3f0f4be5	0.5597518
77	0x3e9d6691	0.30742314
78	0xbf80c18f	-1.0059069
79	0x3d497400	0.04918289
80	0xbf4b2245	-0.79349166
81	0xbecfd84c	-0.4059471
82	0x3dc7809d	0.09741328
83	0xbe92ce72	-0.2867313
84	0x3d9f685a	0.07783575
85	0xbe9b9a5f	-0.30391213
86	0x3db3b7cc	0.08775291
87	0x3f1cf2d3	0.6130802
88	0x3e5ee95a	0.21768704
89	0x3f0727a9	0.5279489
90	0xbdf3f260	-0.11911464
91	0xbf2124db	-0.6294686
92	0x3e68e132	0.22742155
93	0xbdd8a506	-0.10578351
94	0xbf1337c7	-0.57506984
95	0xbe0a9226	-0.13532314
96	0x39990523	0.0002918626
97	0xbe05204c	-0.13000602
98	0xbd87610e	-0.066103086
99	0x3d48e186	0.0490432
100	0x3ee4e762	0.4470778
101	0x3e8ac63c	0.27104366
102	0x3f701ccb	0.93793935
103	0x3eaa66bf	0.33281514
104	0xbf26a4b5	-0.65095073
105	0xbf1ccad7	-0.6124701
106	0x3f51a424	0.81891084
107	0x3e3425e0	0.17592573
108	0x3f063ec9	0.5243955
109	0x3e78c00c	0.2429201
110	0x3e96f428	0.2948315
111	0x3f001825	0.5003684
112	0x3ec14ba9	0.37753037
113	0xbe567da8	-0.20946372
114	0x3f1da9f6	0.61587465
115	0x3eeb4cec	0.45957124
116	0x3f1add52	0.6049396
117	0x3f1153ec	0.5676868
118	0xbf1b80e2	-0.60743535
119	0xbf1937c7	-0.59850734
120	0xbc7cc39e	-0.015427498
121	0xbbabea92	-0.005246469
122	0x3a23f440	0.00062543526
123	0xbeef9f65	-0.46801296
124	0x3e8d0d41	0.27549174
125	0xbe220d45	-0.15825374
126	0xbea8152c	-0.32828653
127	0xbde25abf	-0.11052465

bias f4 [32]
0	0x3e52a71d	0.20571561
1	0x3f0a2e3b	0.5397679
2	0xbe9efc66	-0.3105194
3	0x3e6c1ba3	0.23057418
4	0x3e9ba396	0.30398244
5	0xbd0e770c	-0.0347815
6	0x3ede9840	0.43475533
7	0xbd1ed9de	-0.038781993
8	0x3ea387e4	0.31939614
9	0x3e48643f	0.19569491
10	0xbe338699	-0.17531814
11	0xbed6fa6a	-0.41987926
12	0xbe1987da	-0.1499323
13	0xbda9e8ce	-0.08296357
14	0xbe83d2ff	-0.25746915
15	0xbd2f5e56	-0.042814575
16	0xbc120a84	-0.00891364
17	0xbd9d4dbd	-0.07680843
18	0xbc9eada4	-0.019369908
19	0x3dc582ab	0.096440636
20	0xbd6c7092	-0.057724543
21	0x3e55f198	0.20892942
22	0xbd69daa6	-0.057093285
23	0x3f1d0650	0.6133776
24	0xbe3ddb37	-0.18540655
25	0xbcc2c378	-0.023774847
26	0xbe996ec8	-0.29967332
27	0xbe515e2b	-0.20446078
28	0xbe7c8346	-0.24659452
29	0xbd313fac	-0.043273613
30	0x3ecaaa3e	0.3958301
31	0xbe9bfdf7	-0.30467197

weight f4 [2, 32]
0	0xbee3d74b	-0.44500193
1	0x3e1c305c	0.15252823
2	0x3d67d3d8	0.056598514
3	0x3e9a9177	0.30189106
4	0xbea395b5	-0.31950155
5	0x3dcc8dac	0.09987959
6	0xbe79fc12	-0.24412563
7	0xbeb52eba	-0.35387212
8	0xbdf2d4ab	-0.118569694
9	0x3e006ee2	0.12542298
10	0xbd9c65c9	-0.076366015
11	0x3d9ad20e	0.07559596
12	0xbe123732	-0.14278868
13	0xbeba383d	-0.3637103
14	0xbe5277a4	-0.20553452
15	0xbdfd7650	-0.12376082
16	0x3e64a26a	0.22327581
17	0xbe94a8fd	-0.29035178
18	0xbeebe3ae	-0.46072143
19	0x3ea7e784	0.3279382
20	0xbe1e7f39	-0.15478219
21	0xbe9b2921	-0.30304816
22	0xbbd7896a	-0.0065776603
23	0x3e39cdf7	0.18144976
24	0x3aa25717	0.0012385574
25	0xbe876b25	-0.26448932
26	0xbef6bcf7	-0.48191044
27	0xbe805cae	-0.2507071
28	0xbea0d4a7	-0.3141224
29	0x3d677fbf	0.056518313
30	0x3ea2af43	0.3177434
31	0x3cebb37a	0.028772105
32	0x3e6b6318	0.2298702
33	0xbd989409	-0.074501105
34	0x3e030a1f	0.1279683
35	0xbe9f9cd3	-0.31174335
36	0x3e9f40a3	0.31104
37	0x3d550fb4	0.05201693
38	0x3eb49419	0.3526924
39	0x3e42fe5a	0.1904234
40	0x3ca7fd7f	0.020506619
41	0xbeac6480	-0.33670425
42	0x3e314e38	0.17314994
43	0xbd8c6fe5	-0.0685728
44	0x3e902969	0.28156593
45	0x3ed3458b	0.41263995
46	0x3ebc85d2	0.36820847
47	0x3e94b0d8	0.2904117
48	0xbd94cc01	-0.07265473
49	0x3ec23549	0.37931278
50	0x3ebbca9e	0.36678022
51	0xbe0b1e99	-0.13585891
52	0xbd46670b	-0.048438113
53	0x3ed5c876	0.41754502
54	0x3c09ca4f	0.0084100505
55	0xbd8fdbda	-0.07024355
56	0x3c7ca404	0.015419964
57	0x3e994613	0.29936275
58	0x3e86f04e	0.26355213
59	0x3e899db1	0.26878121
60	0x3e31a3c1	0.17347623
61	0x3c0784b2	0.008271383
62	0xbec97c17	-0.39352486
63	0xbe62a735	-0.22134097

bias f4 [2]
0	0x3e134b34	0.14384156
1	0xbe3cdb99	-0.18443145

weight f4 [1, 32]
0	0x3d8faf86	0.070159
1	0x3e2f3b25	0.17112406
2	0x3e0f6227	0.14002286
3	0x3e0ad645	0.135583
4	0x3daab96e	0.08336149
5	0xbe8d6007	-0.27612326
6	0x3e5339ee	0.20627567
7	0xbe6c1ce1	-0.23057891
8	0x3de9b43d	0.11411331
9	0x3b28fdd8	0.0025786068
10	0xbe939ef7	-0.28832218
11	0x3dedf5fa	0.11619182
12	0xbeb7adbe	-0.35874742
13	0xbeae03e7	-0.33987352
14	0xbe8a2b4a	-0.26986152
15	0xbec1ae00	-0.37828064
16	0xbdcbef1f	-0.09957718
17	0xbe7c790f	-0.24655555
18	0xbe650b8d	-0.22367688
19	0xbe0fbee0	-0.14037657
20	0xbe61eced	-0.22063036
21	0xbb5b4208	-0.0033456106
22	0xbec9cf2a	-0.39415866
23	0x3e5ff858	0.2187208
24	0x3d2e2546	0.042516015
25	0xbecc294f	-0.39875266
26	0xbe0a48c2	-0.13504317
27	0xbe6caeb9	-0.23113526
28	0xbd58cc72	-0.05292935
29	0xbec04567	-0.3755295
30	0x3d87df26	0.06634359
31	0xbaa05648	-0.0012232745
