Code/PyTorch/AlgswithPyTorch/Char03 Actor-Critic/AC_CartPole_Model/ModelTraing20300Times.pkl (torch_old, 53160 bytes, 5 tensors)

weight f4 [32, 4]
-0.2133504 0.06528261 1.1233146 0.35405356 -0.2731101 0.37592784 -0.6626585 0.08953786
0.06950849 -0.061222076 0.13868046 0.024665892 -0.037041076 -0.35025972 -0.9909611 -0.4712863
-0.08265487 0.22415225 1.4861752 0.48586228 -0.32921317 -1.0531098 -0.9360473 -0.553737
-0.1049182 0.052491687 0.5537044 0.52285755 -0.6814974 0.53252906 0.98211 0.7155816
-0.080756456 -0.5292875 -0.32189456 -0.17537655 0.011176078 -0.61497444 -0.67827374 -0.34956455
0.6290569 -0.24477859 1.3707956 0.0019619416 -0.26340872 0.25700742 -0.26541007 0.14705235
-0.33942595 -0.7330258 -1.3577256 -0.36074895 0.014399338 0.25346342 1.679021 0.42349967
-0.31326413 -0.30132747 0.8288809 0.23719786 -0.27229983 0.65388536 1.1802922 0.88874894
-0.29106486 -0.32740253 -1.1320666 -0.34180847 -1.015835 -0.60564137 0.35383597 -0.5114404
0.11796046 0.3024736 1.5682553 0.4086183 0.31660488 -0.033982854 -1.4530405 0.067398265
-0.96289444 -0.6499148 -0.2115078 -0.6182377 -0.23630977 0.04944491 0.546486 0.3766747
0.090155825 0.34298825 -0.026672048 -0.28447518 0.0053604944 -0.10210802 -0.9566581 -0.2566023
-0.14327434 -0.14942984 -0.039922904 0.028422093 0.42612514 0.16404748 1.5818437 0.4689357
-0.5997449 -0.66857934 0.82509434 0.13120642 0.43051413 0.1545468 1.1491367 0.4726143
0.15479332 0.13081253 1.0824664 0.14759357 0.5300247 0.40290087 -0.4681191 -0.47109726
-0.14768922 -0.057982225 -0.68633974 -0.9147261 0.12714678 -0.24989383 -0.51778007 -0.18678983
00000000: 8778 5abe e4b2 853d c6c8 8f3f 8246 b53e
00000010: 16d5 8bbe 9d79 c03e fda3 29bf a05f b73d
00000020: 785a 8e3d 00c4 7abd 4002 0e3e 2010 ca3c
00000030: 62b8 17bd 3e55 b3be a0af 7dbf 704c f1be
00000040: f546 a9bd 2b88 653e fd3a be3f f1c2 f83e
00000050: a18e a8be 4dcc 86bf cca0 6fbf b5c1 0dbf
00000060: 5adf d6bd 8601 573d 92bf 0d3f fed9 053f
00000070: 9d76 2ebf d353 083f 906b 7b3f 5b30 373f
00000080: a463 a5bd 637f 07bf 5dcf a4be e995 33be
00000090: de1b 373c f76e 1dbf 59a3 2dbf 20fa b2be
000000a0: df09 213f 3da7 7abe 3b76 af3f eb93 003b
000000b0: 82dd 86be 7a96 833e d4e3 87be e494 163e
000000c0: 3dc9 adbe 94a7 3bbf f4c9 adbf 16b4 b8be
000000d0: 33eb 6b3c f5c5 813e 29ea d63f f3d4 d83e
000000e0: 2864 a0be 9847 9abe 8a31 543f ffe3 723e
000000f0: e26a 8bbe 0865 273f d113 973f 0d85 633f
00000100: 7406 95be 4ea1 a7be 8fe7 90bf 8501 afbe
00000110: e206 82bf 500b 1bbf fd29 b53e c2ed 02bf
00000120: 4195 f13d d2dd 9a3e 97bc c83f 6b36 d13e
00000130: 091a a23e 9b31 0bbd 3bfd b9bf 1a08 8a3d
00000140: 4080 76bf d160 26bf 8095 58be d344 1ebf
00000150: 30fb 71be bf86 4a3d 82e6 0b3f 82db c03e
00000160: 9ea3 b83d 289c af3e 577f dabc bba6 91be
00000170: 16a7 af3b 021e d1bd 8ce7 74bf 6061 83be
00000180: 82b6 12be 2304 19be 3386 23bd 73d5 e83c
00000190: 132d da3e 10fc 273e db79 ca3f 5718 f03e
000001a0: e288 19bf 0428 2bbf 6239 533f fa5a 063e
000001b0: 596c dc3e 8441 1e3e e916 933f 80fa f13e
000001c0: 2482 1e3e b8f3 053e 428e 8a3f c522 173e
000001d0: b3af 073f 0649 ce3e 4fad efbe a933 f1be
000001e0: d83b 17be c57e 6dbd f6b3 2fbf 7d2b 6abf
000001f0: c432 023e 2be4 7fbe 3c8d 04bf d545 3fbe

bias f4 [32]
-0.022353448 0.6054064 -0.3105194 0.06866146 0.3511013 0.21695673 0.44496647 -0.1716586
-0.0819559 -0.18427911 -0.35004506 -0.41987926 0.1455061 -0.2937629 -0.39790356 -0.21417464
0.010279195 0.08207174 -0.1389943 -0.34081215 0.11625326 -0.09007289 -0.43761277 0.57558125
-0.21387684 -0.2874158 -0.29337472 -0.46214914 -0.5109329 -0.3656972 0.28521037 -0.5506276
00000000: 941e b7bc eafb 1a3f 66fc 9ebe 619e 8c3d
00000010: 8dc3 b33e e829 5e3e a5d2 e33e 46c7 2fbe
00000020: 7fd8 a7bd aab3 3cbe 1b39 b3be 6afa d6be
00000030: 8dff 143e 1768 96be 04ba cbbe 9950 5bbe
00000040: 126a 283c 3a15 a83d 8654 0ebe ee7e aebe
00000050: 3016 ee3d 2378 b8bd c80e e0be 4b59 133f
00000060: 8802 5bbe 2a28 93be 3635 96be d09e ecbe
00000070: 80cc 02bf aa3c bbbe 1807 923e eef5 0cbf

weight f4 [2, 32]
-0.5466359 0.26255012 0.056598514 0.6045896 -0.602045 0.4374802 -0.36049095 -0.6285424
0.10062454 0.274204 -0.14990318 0.07559596 0.31499767 -0.7540626 -0.29244146 -0.6719232
0.59597385 -0.122116074 -0.98198205 0.3508933 0.08021706 -0.23733044 0.059065398 0.3590847
0.10834236 -0.643907 -0.51112384 -0.43605745 -0.25845057 0.054923505 0.6560822 0.060266107
0.33150426 -0.18452309 0.1279683 -0.6144418 0.5935836 -0.28558367 0.46905765 0.46509427
-0.19868751 -0.48548526 0.24668708 -0.0685728 -0.17622052 0.8029923 0.45511526 0.8385742
-0.4453525 0.21107721 0.88804084 -0.15881415 -0.28343746 0.35182735 -0.057232995 -0.24787846
-0.09168382 0.6787803 0.2927654 0.45413148 0.117804445 0.009866259 -0.7318636 -0.2528349
00000000: 55f0 0bbf f86c 863e d8d3 673d 62c6 1a3f
00000010: 9f1f 1abf 68fd df3e 4592 b8be 28e8 20bf
00000020: 3d14 ce3d 7764 8c3e 3880 19be 0ed2 9a3d
00000030: 6047 a13e 3f0a 41bf e3ba 95be 2903 2cbf
00000040: be91 183f fe17 fabd 2d63 7bbf 49a8 b33e
00000050: d848 a43d c006 73be 8fee 713d f3d9 b73e
00000060: 99e2 dd3d 17d7 24bf 03d9 02bf ec42 dfbe
00000070: a253 84be 78f7 603d 01f5 273f 98d9 763d
00000080: edba a93e 9ff3 3cbe 1f0a 033e 0f4c 1dbf
00000090: 18f5 173f 0638 92be 5328 f03e d620 ee3e
000000a0: bd74 4bbe 8691 f8be 8a9b 7c3e e56f 8cbd
000000b0: 2773 34be e790 4d3f de04 e93e ccac 563f
000000c0: 3e05 e4be a024 583e a556 633f 2da0 22be
000000d0: b71e 91be b722 b43e 256d 6abd dad3 7dbe
000000e0: bac4 bbbd 8cc4 2d3f 59e5 953e ec83 e83e
000000f0: 7543 f13d 17a6 213c 6a5b 3bbf 9373 81be

bias f4 [2]
0.15031092 -0.19090082
00000000: 1beb 193e 817b 43be

weight f4 [1, 32]
-0.055357493 0.16458064 0.14002286 0.013016462 0.002129052 -0.61696154 0.1017831 -0.08345201
0.0031836145 0.03319528 -0.2795251 0.11619182 -0.7404969 -0.15370305 -0.09051247 -0.17096904
-0.018617684 -0.44793835 -0.049077727 -0.017455019 -0.47144598 -0.038688064 -0.21464266 0.16274987
-0.06845201 -0.31697834 -0.14470865 -0.17397685 -0.05337607 -0.25410193 -0.0035400898 -0.10297489
00000000: 8abe 62bd d487 283e 2762 0f3e 0043 553c
00000010: 9187 0b3b 31f1 1dbf a873 d03d e3e8 aabd
00000020: 30a4 503b c6f7 073d ea1d 8fbe faf5 ed3d
00000030: 3491 3dbf 5564 1dbe 9a5e b9bd 8212 2fbe
00000040: 1d84 98bc 2d58 e5be ba05 49bd d4fd 8ebc
00000050: 5e61 f1be 6077 1ebd 49cb 5bbe e7a7 263e
00000060: 9130 8cbd fc4a a2be 812e 14be fd26 32be
00000070: dea0 5abd a619 82be da00 68bb 80e4 d2bd
