Code/PyTorch/AlgswithPyTorch/Char03 Actor-Critic/AC_CartPole_Model/ModelTraing20400Times.pkl (torch_old, 230018 bytes, 5 tensors)

weight f4 [32, 4]
000000 93 d0 3f bc 5d ce 16 bd 8f 33 a5 3f b8 01 ad 3e
       -0.011707443 -0.036817897 1.290636 0.33790374
000010 f6 51 f3 be f8 da 9c 3e f4 48 35 bf 60 87 f3 b9
       -0.4752347 0.3063581 -0.7081444 -0.00046449434
000020 78 5a 8e 3d 00 c4 7a bd 40 02 0e 3e 20 10 ca 3c
       0.06950849 -0.061222076 0.13868046 0.024665892
000030 e9 3c 6e be 37 13 97 be aa 20 a1 bf 21 f5 2c bf
       -0.23265423 -0.29506847 -1.2588093 -0.6756154
000040 39 e8 2e 3d 74 2a a1 3e 5f f5 e1 3f a5 a1 12 3f
       0.042701934 0.31477702 1.7653006 0.572779
000050 3f 44 2e be ed 2e 60 bf 24 2d c2 bf 4c d6 30 bf
       -0.17018221 -0.87571603 -1.5170026 -0.6907699
000060 7d c7 09 be e8 93 9c 3d 79 bf 55 3f 4f bd 20 3f
       -0.13455005 0.076453984 0.8349529 0.6278886
000070 27 e2 f3 be 18 ca f3 3e 21 06 76 3f 25 e9 11 3f
       -0.47633478 0.47615123 0.961031 0.56996375
000080 36 ee c7 bd a3 c1 e3 be e5 c3 00 bf 33 99 9b be
       -0.09762232 -0.4448367 -0.5029891 -0.3039032
000090 2b b6 a8 3d 87 97 ef be c1 b9 44 bf fb 44 0c bf
       0.08237871 -0.46795294 -0.7684594 -0.54792756
0000a0 88 1f 30 3f b9 9e 20 be f9 e5 d5 3f 82 5b f2 3c
       0.6879811 -0.15685548 1.6710807 0.02958465
0000b0 27 79 d4 bc 26 56 c0 3e 87 64 b4 bd 78 03 47 3e
       -0.025936676 0.37565726 -0.088082366 0.19434917
0000c0 2e 22 33 be 46 cc ea be 12 aa e3 bf 65 70 fe be
       -0.17493507 -0.45858973 -1.7786276 -0.49695125
0000d0 68 cf 48 3d 91 d4 89 3e fa ca e3 3f 13 47 f4 3e
       0.049025923 0.26919988 1.7796319 0.47710475
0000e0 64 25 7d be 0c 70 40 be 91 90 54 3f fc 3e 82 3d
       -0.24721295 -0.18792742 0.8303309 0.063596696
0000f0 4d 40 55 be f8 bd 38 3f e4 58 93 3f 48 fe 3b 3f
       -0.2082531 0.7216487 1.1511502 0.7343488
000100 b5 62 24 be 21 9e 50 be 00 d5 8f bf a4 20 14 bf
       -0.16053279 -0.20372821 -1.1236877 -0.57862306
000110 33 6f 55 bf 85 dc af be c8 8b f7 3d a2 46 e5 be
       -0.833728 -0.3434793 0.12087208 -0.4478045
000120 3a 7b a8 3e 83 56 b1 3e eb 6a f3 3f aa 85 fb 3e
       0.32906514 0.34636316 1.9017004 0.49125415
000130 29 59 4f 3e 11 ba 24 bd 4a 2c ba bf ec e6 73 bd
       0.20248856 -0.04021651 -1.4544766 -0.059546396
000140 91 2b 53 bf 53 18 c5 be fb 95 16 bf 0c bd 12 bf
       -0.8248835 -0.3849512 -0.588226 -0.5731971
000150 af 95 80 bd a5 08 d1 3d d5 aa f9 3e ea cd 99 3e
       -0.0627855 0.10206727 0.48763147 0.30039912
000160 9d b4 97 3d c8 bf b5 3e 9f f4 88 bd 3a 5d 80 be
       0.07407496 0.3549788 -0.06687283 -0.25071126
000170 94 9d 24 be 14 37 1f be e7 68 90 bf 71 cb d7 be
       -0.16075736 -0.15548354 -1.1282014 -0.421474
000180 20 fb 45 3b 1f 76 b0 3b d7 0f c5 bd 8d e7 ab bd
       0.0030209497 0.005385175 -0.09622162 -0.08393774
000190 2b 6d f3 3e 42 61 2a 3e 69 43 ef 3f 11 c0 2b 3f
       0.47544226 0.16638663 1.8692447 0.67089945
0001a0 09 f9 b0 be 7b d4 bd be f5 96 24 3f 44 c8 95 be
       -0.34565 -0.37076172 0.6429284 -0.29254353
0001b0 a4 61 d5 3e d7 9d 43 3e a4 ff b5 3f c7 2e 2d 3f
       0.41676056 0.1910318 1.421864 0.676495
0001c0 fd 6e 10 3e 52 8c 16 3e b3 d4 8a 3f d4 3d 03 3e
       0.14104839 0.14701965 1.0846161 0.12816554
0001d0 b6 74 09 3f 43 fe f0 3e 51 1a 06 bf 1e 29 1c bf
       0.5369371 0.47068986 -0.52383906 -0.6100024
0001e0 71 7d 8b be aa a8 63 be 31 d2 8e bf f3 ed 77 bf
       -0.27244142 -0.22232309 -1.1157895 -0.96847457
0001f0 da c1 eb 3d 71 0a 78 be c0 df 04 bf b4 f6 51 be
       0.115115836 -0.24222733 -0.51903915 -0.20504266

bias f4 [32]
000000 a0 32 07 be 63 f4 a1 3e 66 fc 9e be 10 83 37 bc
       -0.13202906 0.31631765 -0.3105194 -0.011200681
000010 fa 76 69 3d 8f 10 88 be 9b 73 1e 3e b0 e7 e4 be
       0.05699823 -0.26575133 0.15473787 -0.44708014
000020 d9 54 09 be 71 34 6b be 38 f3 69 be af ed 2b bf
       -0.13411273 -0.22969224 -0.22846687 -0.6715955
000030 cf a7 d2 be f3 32 82 be 1b 39 06 bf 9f e3 66 be
       -0.41143653 -0.25429496 -0.52430886 -0.22547768
000040 02 41 64 be 1e 6d ca be b3 91 c4 3d 5c 65 de be
       -0.22290424 -0.39536375 0.095981024 -0.43436706
000050 63 6b 9c be 33 3c 75 be 3c ad f1 be 2e dd b5 3e
       -0.3055068 -0.23948745 -0.4720248 0.3552031
000060 e1 e7 ad be 7d f5 57 be fc c6 36 bf 61 c7 e7 be
       -0.33965972 -0.2108974 -0.71397376 -0.45269302
000070 39 e2 06 bf 24 b6 a6 be 46 48 9e 3d 31 06 10 bf
       -0.5268894 -0.32560837 0.07728629 -0.5625945

weight f4 [2, 32]
000000 5a b3 05 bf 68 92 d4 3e d8 d3 67 3d e2 2d 48 3f
       -0.52226794 0.4151795 0.056598514 0.7819501
000010 8e 04 5a bf b4 be fc 3e 7e 20 e7 be ef 88 c8 be
       -0.851632 0.49364245 -0.45141977 -0.39166972
000020 0e aa bf 3d b1 d7 8f 3e 6e 00 82 be df 67 6f 3e
       0.09358607 0.28094247 -0.25390953 0.23379467
000030 8e 62 cb 3e 84 2c 47 bf ad 43 58 be a2 f9 34 bf
       0.3972363 -0.778023 -0.21119566 -0.7069341
000040 e0 8e 40 3f 73 47 09 bc a7 71 a0 bf 10 e7 b6 3e
       0.7521801 -0.008378851 -1.2534684 0.35723162
000050 c0 1e 51 3e af fe 1c be 7b 2e ec 3d d2 d8 ea 3e
       0.20421886 -0.15331529 0.11532303 0.45868546
000060 91 5b 08 3e 4c 7f 53 bf a3 aa b2 be 5a e8 0f bf
       0.1331618 -0.82616115 -0.3489581 -0.56213915
000070 f4 ac 87 be 58 98 04 3e 65 29 55 3f 1a f3 5b 3d
       -0.2649914 0.1294874 0.8326629 0.053698637
000080 f2 40 9d 3e 40 9f ac be 1f 0a 03 3e 8f b3 4a bf
       0.30713612 -0.33715248 0.1279683 -0.79180235
000090 09 da 57 3f 52 f9 ae be 45 5b 0f 3f e6 b2 69 3e
       0.8431707 -0.3417459 0.5599864 0.2282215
0000a0 9e 3f 44 be c3 04 fc be 18 8e b3 3e cb 36 68 be
       -0.19164893 -0.49222383 0.35069346 -0.22677152
0000b0 bf 54 84 be 2c b3 53 3f d0 6b bf 3e 46 a3 5f 3f
       -0.25845906 0.8269527 0.37386942 0.8735851
0000c0 c2 ff 19 bf 22 5a c7 3d 66 6b 94 3f b9 1d 29 be
       -0.6015588 0.09733988 1.1595275 -0.16515245
0000d0 e4 9b d0 be ad 1e 89 3e c6 6d e8 bd cd e8 b1 be
       -0.40743935 0.26781216 -0.113490626 -0.34747925
0000e0 40 99 ee bd c1 6c 5c 3f fd bb 05 3e da 88 14 3f
       -0.11650324 0.86103445 0.13059993 0.5802132
0000f0 ac a8 fe 3d 33 80 84 bd ce 8f 68 bf 8a 2d 7c be
       0.12434515 -0.064697646 -0.9084443 -0.24626747

bias f4 [2]
000000 04 f7 45 3e 69 87 6f be
       0.1933251 -0.23391499

weight f4 [1, 32]
000000 e8 fd 0d 3d 96 ee 38 3d 27 62 0f 3e aa 88 46 bc
       0.034665972 0.04514941 0.14002286 -0.012117544
000010 02 c1 85 bd ad 90 90 be 5e 6c 4f bc 6f c1 c8 bd
       -0.06530954 -0.2823538 -0.012660114 -0.098025195
000020 bf 18 36 bc e0 ad 8a 3c 49 2d 8b be 22 f7 7f bd
       -0.011114298 0.016928613 -0.27182987 -0.062491544
000030 5f 73 eb be 51 33 11 be ce 96 fd bd 6c 39 01 be
       -0.4598646 -0.14179732 -0.12382279 -0.12619561
000040 b8 57 97 3b 65 9b 80 be 0f a1 fb bd f4 93 ba 3c
       0.004618611 -0.25118557 -0.12286579 0.022775628
000050 18 bb 86 be f5 6b 19 bc 07 dd 54 be af 43 8b 3c
       -0.26314616 -0.009364118 -0.2078744 0.017000047
000060 e9 3f 24 bd a1 e6 90 be 90 b7 aa bd df 60 02 be
       -0.040100012 -0.28300956 -0.08335793 -0.12732266
000070 49 9b 42 bd a7 86 83 be a5 b3 e7 bc 5d f3 c0 bd
       -0.047511373 -0.2568867 -0.028283903 -0.09421418
