Code/PyTorch/AlgswithPyTorch/Char03 Actor-Critic/AC_CartPole_Model/ModelTraing20200Times.pkl (torch_old, 35160 bytes, 5 tensors)

weight f4 [32, 4]
00000000: 3b5f 77be 21e5 95bd e605 7b3f 45fc ab3e
00000010: 9994 00bf 6ed1 493e 6827 ecbe 12b0 83bd
00000020: 785a 8e3d 00c4 7abd 4002 0e3e 2010 ca3c
00000030: d74b 073e 0969 f3be 6dce 25bf 2de5 43be
00000040: 2a63 d2be 4ebb f4bb 0c56 ad3f e299 9a3e
00000050: 50ec d0be a7c3 4bbf 5d22 4bbf 1878 39bf
00000060: 4302 8cbe 4921 1bbe 795d 0d3f 6a5d d13e
00000070: 6349 2cbf c370 0e3f 3d5c 763f 1f43 343f
00000080: c049 f23d 49d0 1abf d813 22be e27b 083d
00000090: 94e0 ac3e 8199 17bf 1d96 e4be 8c10 40be
000000a0: 1ec7 2d3f b133 fdbd e338 573f 2ebe 103e
000000b0: 82dd 86be 7a96 833e d4e3 87be e494 163e
000000c0: 2aeb acbe e8b3 08bf abb7 94bf 39c2 f3be
000000d0: 0ea3 443d 2d7a 663e cc15 c23f f877 f13e
000000e0: 94fd abbe e82d 88be 2d41 453f 930d 363e
000000f0: 5940 93be 821d 2e3f 795a 8d3f 422d 503f
00000100: 7592 51bc 2082 72be 8310 81bf afd3 a5be
00000110: 979e 6abf c746 0bbf 5870 953e a4c2 eebe
00000120: b414 423d 27f7 923e e178 a53f 85db 9f3e
00000130: d66a 023f a138 d53d 2b68 acbf 4bff 573e
00000140: 5dfc 59bf 4cdd 17bf c292 79be 19ab 0fbf
00000150: fb2b 71be 8942 debd 69c6 c73e 4379 d33e
00000160: 3a2b 493e 4524 db3e 1d40 40be 5f11 b5be
00000170: 15bc b83d 2dc3 34be 116a 27bf 5871 85be
00000180: c4b7 e0bd cf11 09be 3c5d 4abd deb4 dc3c
00000190: 86ee e53e 8c4f 8a3e 1591 953f b542 dc3e
000001a0: a70f 26bf c87f 10bf 2cf2 343f 5c3c fc3b
000001b0: 7da9 ff3e 8aa9 7d3e c75f 2b3f c103 073f
000001c0: 8521 5f3e 6c73 e0bd a696 573f bb0b a63e
000001d0: 2ba6 183f 87aa ee3e e0a2 2fbf 1436 9ebe
000001e0: 7cda 81be fcbd 28be 0a29 b9be 0486 47bf
000001f0: 66ba 683e 6e30 e6be 27c8 10bf 72e2 233e
-0.24157421 -0.073190935 0.98055875 0.33590904 -0.5022674 0.19708797 -0.46123815 -0.06430067
0.06950849 -0.061222076 0.13868046 0.024665892 0.13212524 -0.47541073 -0.64768106 -0.19130392
-0.4109128 -0.0074686175 1.3541884 0.30195528 -0.40805292 -0.79595417 -0.7934931 -0.72448874
-0.27345476 -0.15149416 0.5522075 0.40891582 -0.6729948 0.5564081 0.96234494 0.7041492
0.11830473 -0.6047407 -0.15827882 0.03332127 0.3376509 -0.59218603 -0.44645777 -0.18756312
0.67881954 -0.12363375 0.8407118 0.14135048 -0.26340872 0.25700742 -0.26541007 0.14705235
-0.33773166 -0.53399515 -1.1618551 -0.47609118 0.048007064 0.22507544 1.5162902 0.4716184
-0.33591902 -0.26597524 0.77052575 0.17778616 -0.2876003 0.68013775 1.1043235 0.8131906
-0.012791266 -0.23682451 -1.0083164 -0.32388064 -0.9164824 -0.5440487 0.29187274 -0.46632874
0.047383025 0.28704187 1.2927514 0.31222168 0.5094427 0.10411192 -1.346929 0.2109348
-0.851507 -0.5932205 -0.2437239 -0.5612045 -0.23551933 -0.10852534 0.39018562 0.41303453
0.19645396 0.4280111 -0.18774457 -0.35364816 0.09020249 -0.17652579 -0.6539622 -0.26063037
-0.109725505 -0.133857 -0.04940532 0.026941713 0.4490854 0.27013814 1.16849 0.43019643
-0.64867634 -0.5644498 0.70682025 0.007697625 0.49933997 0.24771705 0.6694302 0.52740103
0.2179013 -0.10959515 0.84214246 0.32430825 0.5962855 0.46614477 -0.686079 -0.30900633
-0.25362003 -0.16478723 -0.36164123 -0.77938867 0.22727355 -0.44958824 -0.5655541 0.16004351

bias f4 [32]
00000000: 13a6 b03d ea73 0e3f 66fc 9ebe fc15 373e
00000010: 8cda 903e 17de 25bc 51c0 db3e 9928 28be
00000020: 2d1d 003e f4f6 213d b530 73be 6afa d6be
00000030: bd9f a0bc 8ed1 50be 6773 d6be 084b 53be
00000040: fb0e 5e3d 5b53 b9bc bb62 25be aa7e e3bd
00000050: e7d2 21bc 8f98 2f3d b89c 86be 9369 273f
00000060: 13e2 5dbe d51e 40be e3cf b7be 1f82 99be
00000070: ab06 c8be 9ab6 6bbe b1a2 983e 4f80 90be
0.08625426 0.5564562 -0.3105194 0.1787948 0.28291738 -0.010123751 0.42920163 -0.16421737
0.1251113 0.039542153 -0.23749049 -0.41987926 -0.01960742 -0.20392439 -0.4188492 -0.20634091
0.054213505 -0.022622755 -0.16150944 -0.11108144 -0.009876943 0.0428701 -0.26291442 0.6539547
-0.21668272 -0.18761761 -0.35900792 -0.29982087 -0.39067587 -0.23018876 0.29811624 -0.28222892

weight f4 [2, 32]
00000000: 110a 00bf bfa6 d63d d8d3 673d 7e6c 0b3f
00000010: 716b 0ebf 3129 b43e a5c8 a0be a365 1bbf
00000020: 422f c33d 0164 b13e e275 0b3e 0ed2 9a3d
00000030: b4f0 4a3e 169c 03bf 7b7d 95be 7c19 0bbf
00000040: 35c4 da3e 911e 47be 642b 31bf cb74 ff3e
00000050: 813a d63b 4bd1 64be 5fdf 493d 7b9e a33e
00000060: f857 bc3d c633 92be b109 09bf 6043 fabd
00000070: 48b4 d7bd 3d79 293e df19 da3e 64ee b63e
00000080: 62ee 913e 5168 dbbc 1f0a 033e 2cf2 0dbf
00000090: e840 0c3f 9bc7 4cbe b65e d83e c11b e33e
000000a0: 4002 46be 8bc8 0ebf 3b6a 21bd e56f 8cbd
000000b0: 6354 73bd c022 103f 76c7 e83e 1dc3 353f
000000c0: fba5 8dbe 9a1b 913e dc1e 193f 991c 9dbe
000000d0: daca 56be f907 ad3e f45d 42bd f45c 55be
000000e0: 1b3a 9abd b40e a43e b046 a23e b8a3 0f3e
000000f0: a8ad 10bd fb41 cebd 5a73 00bf 63c3 0cbf
-0.5001536 0.10481023 0.056598514 0.5446242 -0.5563269 0.35187677 -0.3140308 -0.6070196
0.09530498 0.3464661 0.13619187 0.07559596 0.19818383 -0.51410043 -0.29197297 -0.5433576
0.4272782 -0.19445254 -0.69206834 0.49893793 0.006537736 -0.22345464 0.04928529 0.31956849
0.09196466 -0.28555125 -0.5353041 -0.12219882 -0.10532433 0.16550155 0.42597863 0.35728753
0.28502184 -0.02678314 0.1279683 -0.5544765 0.5478654 -0.19998018 0.4225976 0.44357112
-0.19336796 -0.55774754 -0.03940795 -0.0685728 -0.05940665 0.56303024 0.45464677 0.71000844
-0.27665696 0.2834137 0.5981271 -0.3068588 -0.20975819 0.33795145 -0.047452882 -0.2083624
-0.07530614 0.32042468 0.31694555 0.14027297 -0.03532186 -0.100711785 -0.5017601 -0.54985636

bias f4 [2]
00000000: 8f73 493e f703 73be
0.19672988 -0.23731981

weight f4 [1, 32]
00000000: c7e5 a13d e8a1 7d3e 2762 0f3e 030e 973d
00000010: 0a4c 003e bfd9 00bf 063a 593e f23b d6bd
00000020: ec9c 763d db52 9b3b 28f3 95be faf5 ed3d
00000030: 140d 24bf 1033 62be b0e8 6abd 278a 7ebe
00000040: 9339 cfbd 4bbb b4be 675f 10be 2432 cebd
00000050: 0a69 c2be a861 9d3d 645a 8abe 874b 673e
00000060: aac2 683b 91a8 c5be 422f 79bd b173 7bbe
00000070: e2b8 03bd c358 9fbe ffda ed3d da7f 12bd
0.07905155 0.24768794 0.14002286 0.073757194 0.12529007 -0.50332254 0.2121354 -0.104606524
0.060208246 0.0047401018 -0.29287076 0.11619182 -0.64082456 -0.22089791 -0.057350814 -0.24857388
-0.10118403 -0.35299143 -0.14098893 -0.10068157 -0.37970763 0.07684642 -0.27022088 0.22587405
0.003551642 -0.38605168 -0.060836084 -0.24555852 -0.03215874 -0.31122407 0.11614036 -0.03576646
