Code/PyTorch/AlgswithPyTorch/Char03 Actor-Critic/AC_CartPole_Model/ModelTraing20000Times.pkl (torch_old, 8160 bytes, 5 tensors)

weight f4 [32, 4]
0.2576316 -0.22068912 -0.09693074 0.23468447 -0.47071844 0.29985863 -0.102862656 0.25437194
0.06950849 -0.061222076 0.13868046 0.024665892 0.18261409 -0.1948505 -0.03645438 -0.045013666
0.07247198 -0.0019974113 0.43708336 0.15559506 -0.18620312 -0.30198067 -0.083807826 -0.21567035
-0.16022426 0.023940802 0.29806387 0.27176833 -0.48877543 0.30996025 0.13968194 0.47427773
0.3300299 -0.45556885 -0.4754042 -0.24116606 0.43905586 -0.0832845 0.21397972 -0.23235571
0.490609 -0.21154922 0.3749624 0.0059208274 -0.26340872 0.25700742 -0.26541007 0.14705235
-0.1443786 -0.0548172 -0.48069406 -0.23839086 0.271317 -0.12153864 0.49802476 0.4007942
-0.02341181 -0.33374155 0.3044811 0.15517855 -0.32320988 0.3247723 0.3035509 0.44344747
-0.28027982 -0.08230299 -0.009685934 0.07302874 -0.37945914 -0.3548112 0.27200228 -0.11724597
0.24423671 0.028504968 0.16417241 0.10994434 0.18179971 0.24785537 -0.46305603 0.25167572
-0.3515616 -0.3772545 0.03040719 -0.08520359 0.293662 -0.28956783 -0.44449097 0.3638844
-0.07414091 0.2812286 0.16074228 -0.37493765 0.100449145 0.12009829 -0.33477932 -0.23723614
0.17048782 0.08956128 -0.2126863 -0.15135795 0.45794135 -0.09251064 0.28189582 0.2165016
-0.32320356 -0.42521477 0.47994435 0.026108384 0.34272903 0.1036157 0.16081136 0.3734793
0.47410733 -0.3317905 0.062514484 0.37312865 0.36221755 0.31061924 -0.36185944 -0.3600521
-0.3023858 0.062814176 0.49833244 -0.3158378 0.26644045 -0.27674407 -0.47010785 -0.10626984
00000000: 4ae8 833e 54fc 61be a083 c6bd 2051 703e
00000010: 0202 f1be 1287 993e a8a9 d2bd 0a3d 823e
00000020: 785a 8e3d 00c4 7abd 4002 0e3e 2010 ca3c
00000030: 30ff 3a3e e486 47be 3051 15bd 4060 38bd
00000040: 306c 943d 00e7 02bb 64c9 df3e 5054 1f3e
00000050: 08ac 3ebe 369d 9abe 70a3 abbd b0d8 5cbe
00000060: d411 24be 801f c43c d49b 983e 3825 8b3e
00000070: c640 fabe 1cb3 9e3e c808 0f3e 88d4 f23e
00000080: aef9 a83e 5240 e9be 2e68 f3be 3cf4 76be
00000090: eecb e03e 1091 aabd 801d 5b3e a8ee 6dbe
000000a0: 1a31 fb3e 5ca0 58be 12fb bf3e 8003 c23b
000000b0: 82dd 86be 7a96 833e d4e3 87be e494 163e
000000c0: fcd7 13be 0088 60bd 881d f6be bc1c 74be
000000d0: 10ea 8a3e 40e9 f8bd 1afd fe3e e634 cd3e
000000e0: 20ca bfbc 2ce0 aabe f2e4 9b3e 20e7 1e3e
000000f0: c47b a5be 8e48 a63e 066b 9b3e 8c0b e33e
00000100: d680 8fbe 788e a8bd c0b1 1ebc 1890 953d
00000110: 7848 c2be d0a9 b5be e243 8b3e a81e f0bd
00000120: 3019 7a3e 4083 e93c d01c 283e 802a e13d
00000130: b429 3a3e cccd 7d3e ae15 edbe a4db 803e
00000140: e2ff b3be 8027 c1be 8018 f93c 387f aebd
00000150: de5a 963e 3c42 94be 5294 e3be 0e4f ba3e
00000160: 30d7 97bd 32fd 8f3e a099 243e d4f7 bfbe
00000170: 48b8 cd3d 18f6 f53d 3268 abbe 08ee 72be
00000180: 5c94 2e3e e86b b73d 70ca 59be 94fd 1abe
00000190: 4a77 ea3e 3876 bdbd a654 903e 98b2 5d3e
000001a0: f07a a5be c0b5 d9be 44bb f53e 40e1 d53c
000001b0: 2e7a af3e 7834 d43d bcab 243e ae38 bf3e
000001c0: 32be f23e 72e0 a9be 9807 803d b80a bf3e
000001d0: 9474 b93e 7c09 9f3e a445 b9be c058 b8be
000001e0: 50d2 9abe b8a4 803d 6e25 ff3e 7eb5 a1be
000001f0: e26a 883e 66b1 8dbe fab1 f0be 00a4 d9bd

bias f4 [32]
0.28808546 0.46418744 -0.3105194 0.10850561 0.4314301 0.33132678 0.31161153 0.35531628
0.3162582 0.12914819 -0.34191006 -0.41987926 -0.2291103 -0.05822295 -0.30647612 0.18292683
0.15474391 -0.11321765 0.19217038 0.16159236 0.30526948 0.33672184 -0.16932636 0.4885128
-0.05780387 -0.017177999 -0.47194004 -0.3218081 -0.29210174 -0.21386147 0.35548478 -0.16339052
00000000: f07f 933e faa9 ed3e 66fc 9ebe 3038 de3d
00000010: 68e4 dc3e aaa3 a93e 8c8b 9f3e 04ec b53e
00000020: 98ec a13e 6c3f 043e d60e afbe 6afa d6be
00000030: e49b 6abe 307b 6ebd 70ea 9cbe 2c51 3b3e
00000040: 3075 1e3e a8de e7bd 50c8 443e 7878 253e
00000050: 484c 9c3e ce66 ac3e e463 2dbe 5a1e fa3e
00000060: c0c3 6cbd e0b8 8cbc 20a2 f1be 08c4 a4be
00000070: 5c8e 95be 80fe 5abe 1a02 b63e d84f 27be

weight f4 [2, 32]
-0.1321019 0.068014815 0.056598514 0.1144966 -0.091477014 0.038327843 -0.064355664 -0.039717257
-0.14087659 -0.08056791 -0.054139227 0.07559596 0.032295227 0.04366675 0.17644174 0.17229141
0.12057005 0.0056291968 -0.12229259 0.1381527 -0.044205382 -0.01429157 -0.15229294 -0.034918457
-0.11401881 0.16244115 -0.15282717 -0.13779438 -0.0060026795 -0.09558589 0.06325276 -0.06804588
-0.083029814 0.010012209 0.1279683 -0.12434892 0.08301546 0.11356868 0.17292248 -0.12373147
0.042813525 -0.13071343 0.15092315 -0.0685728 0.106481925 0.0052628964 -0.0137678385 -0.0056405514
0.030051067 0.08333184 0.028351426 0.053926602 -0.159015 0.12878843 0.15412523 0.14612465
0.13067733 -0.12756762 -0.06553112 0.15586849 -0.13464348 0.16037555 -0.13903417 -0.124523014
00000000: b845 07be 5a4b 8b3d d8d3 673d 327d ea3d
00000010: 4d58 bbbd a8fd 1c3d e7cc 83bd 90ae 22bd
00000020: f441 10be ca00 a5bd 18c1 5dbd 0ed2 9a3d
00000030: 0048 043d e8db 323d 25ad 343e 296d 303e
00000040: 6eed f63d 2075 b83b 8a74 fabd e777 0d3e
00000050: b410 35bd 3027 6abc aef2 1bbe a806 0fbd
00000060: b282 e9bd f956 263e ba7e 1cbe f819 0dbe
00000070: 20b2 c4bb 89c2 c3bd aa8a 813d a35b 8bbd
00000080: 890b aabd 400a 243c 1f0a 033e a6aa febd
00000090: 0204 aa3d b296 e83d 9712 313e ed66 fdbd
000000a0: 3c5d 2f3d bed9 05be 998b 1a3e e56f 8cbd
000000b0: 3213 da3d 6074 ac3b 8092 61bc 60d4 b8bb
000000c0: a82d f63c e2a9 aa3d 4041 e83c 24e2 5c3d
000000d0: d4d4 22be 1de1 033e 01d3 1d3e b3a1 153e
000000e0: 47d0 053e 16a1 02be 2e35 86bd fd9b 1f3e
000000f0: fbdf 09be 7d39 243e f95e 0ebe ec05 ffbd

bias f4 [2]
0.08642225 -0.12701212
00000000: 26fe b03d 770f 02be

weight f4 [1, 32]
-0.040499657 0.12860359 0.14002286 0.16718756 -0.035871074 -0.13740158 0.17405625 -0.037658066
-0.07273214 0.043093532 -0.123624265 0.11619182 0.11079173 -0.14026898 -0.1451995 -0.015485004
0.07425071 -0.0051198304 -0.0896395 0.0040415525 -0.16615811 -0.124938875 -0.11767836 0.14558096
0.15582968 -0.06004516 0.007928491 0.07883851 0.021180913 -0.08852138 0.10195391 0.10867067
00000000: f8e2 25bd a9b0 033e 2762 0f3e 3733 2b3e
00000010: 8ced 12bd 00b3 0cbe cd3b 323e 583f 1abd
00000020: 97f4 94bd d882 303d b82e fdbd faf5 ed3d
00000030: c6e6 e23d aca2 0fbe 2daf 14be d0b4 7dbc
00000040: c210 983d 40c4 a7bb ea94 b7bd 006f 843b
00000050: 5a25 2abe f4df ffbd 5a01 f1bd 2d13 153e
00000060: d191 1f3e eaf1 75bd 80e6 013c 1676 a13d
00000070: 9883 ad3c b34a b5bd 36cd d03d ba8e de3d
